PlantAura/Aplicación/PlantAura/app/src/main/assets/modelo_salud_plantas.tflite (tflite, 307084 bytes, 7 tensors)

sequential/dense/MatMul f4 [1, 50]
00000000: e856 833d 003a 843e 3b26 75be 82b8 303e
00000010: 62d0 36be 57fa fa3d e963 8cbe b095 953e
00000020: 74b8 09be 0165 133e 3595 a73d f433 64be
00000030: ac36 9e3e 0dda 7cbe 0bff 69bd a02b 05be
00000040: c2e8 5d3e 439a a93e 4d09 d83d c812 6c3d
00000050: 499d 91be 02e8 64be 88a6 87be 5d29 52be
00000060: bc23 27bd c025 3fbe d82e 98bc f98e 973d
00000070: 932e 2ebe 2787 52be 06b1 943e 693e 52be
00000080: 90f2 07be 69f6 88be 26c3 49be af7e 323e
00000090: c1f5 be3e c257 c1bc a355 913e db59 7dbd
000000a0: 8bc7 bfbd 6977 9f3e 33d4 23be a1cb b43d
000000b0: 38be d6bd 612b 83be be33 813e 3207 16bd
000000c0: d368 26be a30d 6c3e
0.064130604 0.258255 -0.23940365 0.17257884 -0.17852929 0.1225478 -0.27419975 0.29215765
-0.1344927 0.14393999 0.08182756 -0.22285444 0.30901086 -0.24692555 -0.057127994 -0.13004923
0.21670821 0.33125505 0.10548649 0.0576351 -0.28440312 -0.22354129 -0.2649424 -0.20523591
-0.040805563 -0.18666744 -0.018577024 0.07400317 -0.17009954 -0.20559369 0.29041308 -0.2053162
-0.13276124 -0.26750496 -0.1970335 0.17431138 0.3729687 -0.023601416 0.28385648 -0.06185327
-0.09364232 0.3114579 -0.15998916 0.08827902 -0.104855 -0.25619033 0.2523479 -0.036627956
-0.16250925 0.23052077

sequential/lstm/while/lstm_cell/BiasAdd/ReadVariableOp f4 [400]
00000000: a0a9 2a3d 85c7 333d 6d3b a8bb 85d5 0a3d
00000010: 6532 013d 29ce d6bb ab6a 323d 0618 1f3d
00000020: a4c3 313d 3e33 313d 0000 0000 857a d03c
00000030: 09d8 4d3c e49d 2f3d b4ac c33c 59fb 2a3d
00000040: d721 c9bb 0000 0000 7390 3fbc 6402 97bc
00000050: 30f1 333d 5fa7 333d abfd cc3c 9046 983c
00000060: a25e 273d 09af f23c a248 153d b2b6 4cbc
00000070: 51a7 88bb 0000 0000 3a3d c5ba 8ac5 943c
00000080: 2747 2b3d f68c 8c3c cf28 f8bb 7e88 d9bb
00000090: 2cb3 3d3d 22cd 253d 548e 2a3d 08b8 7e3c
000000a0: 0000 0000 400d 073d 67f7 1dbc 0000 0000
000000b0: 407e 953b c898 ecbb c92b 7e3c 4610 153d
000000c0: fcf2 f4bb 1287 053d e653 2f3d ad66 1d3d
000000d0: 0000 0000 0919 353d bee1 383d 72a6 f2bb
000000e0: 6e40 e63c 60eb 5e3c 5dab 8a3c 0ca3 163d
000000f0: 7076 293d 16ee 413d 7d2b 353d 5717 fc3c
00000100: 2fe8 113d b8cd a73c 0918 463d 0326 363d
00000110: 56de bd3c 8ae9 0c3d 50d4 243d 37c9 363d
00000120: a179 2b3d ae3a babb 6fc6 083d 7b7e b13b
00000130: 903c 263d 6877 7f3c 0000 0000 bf93 973c
00000140: ed1e 1c3d 37d1 c8bb b023 253d b8a9 3b3d
00000150: 71ae 173d 673f b13c 6206 a73c 1099 df3c
00000160: 3da7 a63c d33b b3bb fa63 903c 0800 5cbb
00000170: a03b 373d b05a ad3c f8f1 3a3d 1146 333d
00000180: 67a0 393d 0ec8 b33c 7429 0abc 0000 0000
00000190: d579 863f 0084 863f e60c 7f3f 6091 843f
000001a0: b6a2 843f 3fbe 7f3f ecad 863f 4397 873f
000001b0: 4e91 863f 268a 863f 0000 803f d9dd 853f
000001c0: 5e4d 823f 0088 863f 3ec4 833f 2117 863f
000001d0: 9bd6 7f3f 0000 803f 3414 813f e944 7b3f
000001e0: 54aa 863f 57cb 863f ebe2 833f 2ace 823f
000001f0: e7fe 853f 085c 843f 7e68 853f 86b0 7c3f
00000200: 946d 7f3f 0000 803f 47fb 7f3f e727 833f
00000210: 7471 863f fee0 823f df35 7e3f 4e20 7e3f
00000220: ffdb 863f 7014 863f 9273 863f 046e 823f
00000230: 0000 803f ce4c 873f 9893 7d3f 0000 803f
00000240: daaf 803f 5790 7e3f 4764 823f 1b6d 853f
00000250: 7a18 7e3f 5197 853f c051 863f 4682 853f
00000260: 0000 803f 1cc3 863f 988a 863f acf6 7d3f
00000270: 7855 843f c49d 823f 64cd 833f 34a8 853f
00000280: 5650 863f 36a1 873f 1868 863f 5295 843f
00000290: 889b 853f 9475 833f a41b 873f 24cd 863f
000002a0: 966d 833f 9ded 843f 79bd 853f 70b7 863f
000002b0: e396 863f 0060 7f3f a0f9 843f 0fa5 803f
000002c0: 90c8 853f 7874 823f 0000 803f a9c7 823f
000002d0: 1774 863f 79b9 7e3f 1548 873f 102d 873f
000002e0: 12ea 873f 2de7 833f 5e21 853f 563f 843f
000002f0: e940 833f b995 7e3f b2f2 823f 3e9a 7f3f
00000300: 30b7 863f 57b8 833f 72d0 863f dc71 863f
00000310: 25d6 863f 12a2 813f 6fd2 7f3f 0000 803f
00000320: 4f3f 6a3d 1e4b 6a3d 2ac4 c4bb 03dc 523d
00000330: 290e 4e3d 1836 bebb 8d65 683d bee2 8a3d
00000340: 6005 683d 7fed 6b3d 0000 0000 fd7d 523d
00000350: ff62 013d 63f4 6d3d a8b9 1d3d 3030 663d
00000360: ccc3 04bc 0000 0000 ba85 8e3c 4047 8abc
00000370: 65ea 6b3d e95a 643d 1b97 293d e2fd 1a3d
00000380: 787b 603d 4f47 403d 187c 5c3d 4736 60bc
00000390: 0b8d 3d3c 0000 0000 34e8 28bc 80f4 0d3d
000003a0: 30b3 603d 62dc 163d 1420 20bc a2eb 08bc
000003b0: 701e 723d d7c1 5c3d 1574 643d f520 073d
000003c0: 0000 0000 a12d 803d 43d8 36bc 0000 0000
000003d0: 3d0e b13c 2059 08bc 18ea 003d fccc 4d3d
000003e0: de95 0abc 9d4f 353d f828 6c3d f508 583d
000003f0: 0000 0000 cadf 6d3d 9203 6d3d ea3c 543c
0.041665673 0.04389145 -0.005134037 0.033895034 0.0315422 -0.006555338 0.043558758 0.03884127
0.043399468 0.04326176 0.0 0.025449047 0.012563714 0.042875186 0.023886062 0.04174361
-0.006138067 0.0 -0.011692154 -0.018433757 0.043931186 0.04386079 0.025023302 0.018588334
0.040861733 0.029624479 0.03644622 -0.01249473 -0.0041703363 0.0 -0.0015048154 0.0181606
0.041815903 0.01715706 -0.007573224 -0.0066385856 0.04631345 0.040478833 0.04163964 0.015546806
0.0 0.03297162 -0.009641505 0.0 0.0045621693 -0.0072203614 0.015513369 0.036392473
-0.007475255 0.032599516 0.04280462 0.038427997 0.0 0.04421333 0.04513716 -0.0074050957
0.028106894 0.013605922 0.016927416 0.036776587 0.041372716 0.047346197 0.044230927 0.030772848
0.03562182 0.020483837 0.048362765 0.044469845 0.023177307 0.034402408 0.04024154 0.044625487
0.04186404 -0.0056832647 0.033392366 0.005416689 0.0405851 0.0155924335 0.0 0.018503068
0.03811543 -0.006128456 0.040317237 0.045816153 0.037031595 0.021636678 0.020388786 0.027294666
0.020343417 -0.005469778 0.017625798 -0.0033569355 0.044734597 0.021161407 0.045640916 0.043767992
0.045318987 0.02194598 -0.008432735 0.0 1.050593 1.0509033 0.99629056 1.0356865
1.0362155 0.9989967 1.0521827 1.0593036 1.0513093 1.051091 1.0 1.0458328
1.017986 1.0510254 1.0294263 1.0475808 0.99936837 1.0 1.008429 0.98152024
1.052073 1.0530804 1.0303625 1.0219166 1.0468415 1.0340586 1.0422513 0.98706853
0.9977658 1.0 0.99992794 1.0246552 1.0503373 1.0224912 0.9930095 0.99268043
1.0535887 1.0474987 1.0504019 1.0189824 1.0 1.0570314 0.99053335 1.0
1.0053666 0.99438995 1.0186852 1.0423921 0.992561 1.0436803 1.0493698 1.0430381
1.0 1.0528293 1.0511045 0.99204516 1.0338583 1.0204396 1.0297055 1.0441957
1.0493267 1.0596073 1.0500517 1.0358069 1.0438089 1.0270257 1.055531 1.0531354
1.0267818 1.0385014 1.0448447 1.0524731 1.0514797 0.9975586 1.038868 1.0050372
1.0451832 1.0191793 1.0 1.0217181 1.0504178 0.9950176 1.0568873 1.0560627
1.0618308 1.0304924 1.0400808 1.0331829 1.0254184 0.9944721 1.0230315 0.9984473
1.0524654 1.0290631 1.0532362 1.0503497 1.0534102 1.0127585 0.9993047 1.0
0.057189282 0.057200544 -0.00600483 0.05147935 0.050306473 -0.0058047883 0.05673747 0.06781529
0.05664575 0.05759954 0.0 0.051389683 0.03158855 0.058094393 0.038507134 0.0561983
-0.008103322 0.0 0.01739775 -0.016879678 0.057596583 0.05575076 0.04140387 0.037839778
0.05480525 0.046943005 0.053829283 -0.013684816 0.011569272 0.0 -0.010309268 0.034657
0.054858387 0.036831267 -0.009773273 -0.0083569605 0.05911106 0.053895798 0.055774767 0.032990415
0.0 0.06258703 -0.011159959 0.0 0.021613235 -0.00832203 0.03147325 0.050244316
-0.008458583 0.04426538 0.05765626 0.052742917 0.0 0.05807475 0.057864733 0.012953976

sequential/lstm/while/lstm_cell/MatMul_11 f4 [400, 100]
00000000: 716c dabc 45ee 03bb 2748 b13a 1290 123e
00000010: 61a3 5b3d 89a9 6b3d c12b be3c 1f31 253c
00000020: df74 853c b181 863d 790d 6dbd bccf 1e3d
00000030: 9f86 013d 4d1c af3d 6ba1 54bd 2f87 92bc
00000040: e984 073e 4362 f9bc b353 a0bc dfb7 993d
00000050: bab5 b6bd 8099 ec3d 95f6 243d c51d 923d
00000060: e797 123d 3dee a33c af46 983b 915e 44bd
00000070: 697e cb3d 78fb ca3c 2e5e 5cbd c98c eabb
00000080: da9b febb ef28 f13c 93fa 8a3d 02d1 38bc
00000090: 1262 ef3c ab15 4bbd 3c92 973b 1c31 eb3c
000000a0: 4948 55bd 1fb3 1bbd 8551 00bd eda7 e43c
000000b0: d3e7 6f3d d49c 073c d578 92bd 4748 f23c
000000c0: d9d8 7ebd 75f0 d1bd 53e0 e13c c3ce d13d
000000d0: 853f 4bbc 317b d7bc ebc5 b2bd 673c b5bc
000000e0: c447 4dbc 548a dbbb b6a0 89bd f204 d23c
000000f0: fc9e 2c3d 04ed 533d cf26 873d d495 9cbd
00000100: c410 843b a500 afbb d07d 2a3c 1af7 123e
00000110: fa08 1e3d 20d8 e23b 2149 37bd 4982 b8bd
00000120: da52 073d 7c2c b3bd 570f 293d a243 79bc
00000130: f5d6 abbc 3fcc c93b fff6 76bc 9202 963c
00000140: b138 e23d 053f f7bc b785 c43c 91a3 fbbb
00000150: 6cf4 013d 27cc b93d 2bf7 05bd 3d57 df3d
00000160: 07ec 8b3d 73b2 b9bb 8fb8 7b3d c397 97bd
00000170: 9771 3b3d caca 203a 5a0e 27bd 1673 47bd
00000180: 1560 9d3c 7507 4b3d 280f 6fbd 592b 0b3c
00000190: 3e0b 373d fbad 9f3d ff80 c0bc db77 abbd
000001a0: 3114 563d cf3b 93bd f652 423d 46cc 28bd
000001b0: 06c5 0e3d d346 fb3c 11eb aebd 475a ab3c
000001c0: 2566 543c f7f5 ab3c 220f 403d 56f3 203c
000001d0: 789e 41bd 12a1 a5bd c5ff cc3d c29f dd3c
000001e0: 90cb 19bb 6b93 673d a00e d53c ccba 813b
000001f0: daa3 5b3b c39f 3c3d 2e57 b6bc 15c8 09bd
00000200: 1147 0e3e 5e2d d8bc 0747 0dbd 2492 6abd
00000210: 0bb8 a53d 0c47 59bd 4d48 673d 6c1f a63c
00000220: 898a 1b3d 65f7 f43d 0785 2c3c 723d 753d
00000230: 4b48 23ba 3ce7 f03d e2fe 15bd 986e c03c
00000240: 57ae 0d3e 7201 e1bc 12a6 8b3d 4cfc 31bd
00000250: 1be5 8bbd 1db7 353d 5380 853d ff4d a33d
00000260: 1fad e23c a333 353d 4c88 103c afc5 823d
00000270: 8cb3 b93c ed74 303d bb6f 4ebb 08bb 7ebd
00000280: ea5c 653d 5efd 003e a4a0 a73d e453 943c
00000290: 005a 02bb 0461 f63c db1b 943d cd6d 2cbd
000002a0: 3b6b c23d 8f73 9b3c 3f0f 0a3d 08eb c13d
000002b0: 7eab 893d b26e 9cba 5d02 753c 6b2c 503d
000002c0: bc71 0a3c 72a0 6d3d 19d6 4bbc 8ca2 2d3e
000002d0: 4d02 b23b 6fd6 caba f025 053b 2d45 a43c
000002e0: 9011 c33d daf7 2cbd 9c14 9f3d be04 d3bd
000002f0: 8061 d4bb abcc f9bc 59b6 e53d b886 a7bd
00000300: af1d 3f3d 45fb 383d 5bc0 7c3c 6548 16bc
00000310: 88fc 243d 6202 c3bd 6850 e93c cb33 97bd
00000320: f10c 15bd dc35 473b 4089 a4bc 9754 373c
00000330: d834 2ebd 8d6d cb3c 18c5 8e3c e60e cfbc
00000340: f87e 4c3d 3346 f6bb 5bc2 a6bd 37bc bfbd
00000350: d780 e5bd 6fe0 3ebd 6673 83bd 8c8c 913d
00000360: 093e e73c 87ec 773c 9b2e 87bc 5381 a8bd
00000370: 0a35 333d d500 85bd 956f 913b 2a53 b83a
00000380: 5de1 34bd 3259 803d bb49 543c 3016 663d
00000390: 51c0 b9bb e372 2b3c 0e26 6d3d 872a 453d
000003a0: 5c2f 0c3d 0cd0 23bc 1b10 67bd d1af 283e
000003b0: 2410 9dbc f954 d13c 867f 653c e76d 413d
000003c0: b346 87bd 956b b13c 2958 5f3c 713f 3f3d
000003d0: d314 25bd bfef 673d 7ee6 12bd 9ac0 193d
000003e0: 74f9 1a3d 2243 5b3b 0378 e43c f8a2 d4bc
000003f0: 4776 30bd aa3a 43bc 3d5b 883d f862 39bd
-0.026663037 -0.0020131033 0.0013525531 0.14312771 0.053622607 0.05753473 0.023214223 0.010082512
0.01629108 0.065677054 -0.057874177 0.03877233 0.031622525 0.0855032 -0.051911753 -0.017886726
0.13234295 -0.030442363 -0.01957116 0.07505774 -0.0892138 0.11552715 0.04027422 0.07134584
0.035789397 0.020011062 0.004647098 -0.047941748 0.0993622 0.024778113 -0.053800754 -0.007157896
-0.007770044 0.029438464 0.067860745 -0.0112803 0.029221568 -0.04958121 0.004625587 0.02870994
-0.05207089 -0.03801262 -0.031327743 0.027912105 0.058570694 0.008277137 -0.07151953 0.02957548
-0.06221852 -0.10250942 0.027572786 0.10244515 -0.012405281 -0.02630386 -0.08729156 -0.022123529
-0.012529317 -0.0066998396 -0.06720106 0.025637124 0.042143807 0.051739708 0.06599199 -0.07645765
0.004030319 -0.005340653 0.010405973 0.14352074 0.03858278 0.0069227368 -0.044747476 -0.09009225
0.033037998 -0.08748719 0.041274395 -0.015213879 -0.020976523 0.0061583812 -0.015073537 0.018311772
0.11045969 -0.030181417 0.023989541 -0.0076794107 0.03172724 0.09072142 -0.03270642 0.10905311
0.06832128 -0.0056670248 0.061455306 -0.07401993 0.045762625 0.00061337336 -0.04078517 -0.04869374
0.019210855 0.04956766 -0.058364064 0.008494222 0.044688456 0.07796856 -0.02349901 -0.0837247
0.05226535 -0.07189142 0.0474424 -0.041210435 0.034855865 0.03067342 -0.08540929 0.020917071
0.012963806 0.020991309 0.04688943 0.009823641 -0.04727027 -0.08087362 0.10009722 0.027053718
-0.002346728 0.056537073 0.02600795 0.0039590355 0.0033514411 0.0460508 -0.022258367 -0.03363808
0.13894297 -0.02638882 -0.034491565 -0.057268277 0.08091744 -0.05304627 0.056465436 0.020278655
0.037973914 0.11961249 0.010529763 0.059873052 -0.0006228729 0.117628545 -0.03662003 0.023490235
0.13836037 -0.02746651 0.06818785 -0.0434535 -0.06830808 0.044364084 0.065186165 0.07973861
0.027670441 0.044238698 0.008821558 0.063853614 0.022668622 0.04308026 -0.0031499702 -0.062190086
0.055996813 0.12596652 0.08184937 0.018106408 -0.001989007 0.030075558 0.072318755 -0.0420969
0.09493109 0.018976001 0.033705946 0.09468657 0.06722163 -0.0011934845 0.014954177 0.05082361
0.008449968 0.05801434 -0.012441182 0.16956538 0.005432403 -0.0015475283 0.0020316802 0.020052517
0.09524834 -0.042228557 0.07767603 -0.10303639 -0.0064813495 -0.030493101 0.11216421 -0.081799924
0.046659168 0.045161504 0.0154267205 -0.009172534 0.040279895 -0.09521939 0.028480724 -0.073829256
-0.036389295 0.0030397093 -0.020084977 0.011189601 -0.042530864 0.024832511 0.017427966 -0.025275659
0.049925774 -0.0075156926 -0.08142539 -0.09362071 -0.11206215 -0.046600755 -0.06418495 0.07106885
0.028227823 0.015132076 -0.016501715 -0.08227792 0.043751754 -0.06494299 0.0044383504 0.0014062871
-0.044160236 0.06267013 0.012957032 0.056173503 -0.005668678 0.010464403 0.05789762 0.04813626
0.034224853 -0.009998333 -0.056411844 0.16473319 -0.019172736 0.025553213 0.014007455 0.04722395
-0.06605282 0.021657744 0.013631859 0.04669136 -0.040303063 0.056625124 -0.035864346 0.037537195
0.037835553 0.0033456762 0.027889257 -0.025956616 -0.043081548 -0.011915842 0.06658027 -0.0452604

sequential/lstm/while/lstm_cell/MatMul f4 [400, 4]
00000000: ba1e 80bd be8d 863d 8553 9c3c 483f 93bb
00000010: bf7a 90bd 8c11 103e 387c acbc 8475 793d
00000020: a4da 9fbc 2a93 11bd 3a66 f4bd 405e 04bc
00000030: e58a 74bd bf01 2e3d 2b8a c0bc a252 ac3d
00000040: 130f b53d 50e9 b2b9 ba7f f83d 605f f63c
00000050: 1ed5 acbc bec8 66bd 542c 533d b9bf b7bd
00000060: 9e11 6dbc 2af1 45bd aa4e 9cbc e42d debb
00000070: 7664 ed3d 55c3 213d 5a83 433c 7f98 803d
00000080: a0b0 95bc de62 113e 9b19 84bd 6022 b73d
00000090: e80a 6d3c da88 953d 4b9d 933c 59ee 2bbc
000000a0: 400e f53b d16a dfbd a852 23bd 8644 bf3d
000000b0: 6db1 4b3d 2118 de3d 5fdd b03d 0bff d93c
000000c0: 0861 563d f028 89bd bf15 b73c 6aa4 55bd
000000d0: 8061 d13d 6adf 383d 5242 6d3d 0fba 1b3d
000000e0: fef7 d73d 52b8 413a 6283 db3d a44e a53d
000000f0: c971 6cbd 93b1 fe3c 63ea fa3c 35d7 e83c
00000100: 0621 633d c8f4 683d 097e a03d 2d9c df3d
00000110: 17cd debd 5868 1dbd 5f0a c0bd a059 bebd
00000120: 75c2 493d cbdd 1a3d 831e 023d 9c89 81bd
00000130: 511c 08bd 7a7f e0bd 0489 a03d fa09 fcbd
00000140: 6a2d ab3c ba1d f83d 84a3 d43c 252d be3d
00000150: bde1 72bd a68d 823b 8490 e13d 21ff 813d
00000160: 9315 84bd fe99 69bd edc6 be3d fb8b bcbc
00000170: 95e2 c1bd c728 70bd dc22 0ebc f878 8fbd
00000180: 492d debc 70bb a23d c2da 7d3d d795 2abd
00000190: 1105 b63d e5c2 f6bc 82dd d7bc e83c d83d
000001a0: ec7f 723d 002b 32bc 0a71 cf3d ed4a 89bd
000001b0: c572 0a3d 8896 963d 33ef 933d 89d5 7dbd
000001c0: a841 ad3d 3130 c3bd 7120 86bd 7133 53bd
000001d0: 749d 683d 9e5a 923d 44a9 8dbd e6be cd3d
000001e0: a097 913d a0ce 2e3d 209a ec3c fe9e 34bd
000001f0: f9d6 543d e573 623d 9919 fb3d c01e d63d
00000200: d4c2 b3bd 0e89 123e f092 c13b 8802 0d3e
00000210: 9786 933d 06d5 e0bd 4207 14bd 6a20 8cbd
00000220: 9c38 b2bd 9bfd d53d 7904 2f3d 2dbc ca3c
00000230: 3510 e0bb 5aa1 1f3d 3310 3fbd fcbd 6c3d
00000240: 8a91 a0bd 915b aebb 1cd4 2e3d 0aa6 843b
00000250: be21 7abd 81e6 8d3d 67f0 a8bd 3bfa 153e
00000260: b44f 6ebc b18f c7bb 0e19 a4bd f328 69bd
00000270: 3d85 c03d cc39 e73d 76c9 f13d 6e97 323d
00000280: 641c 88bd 801d d9bd 2045 323d ee50 f53d
00000290: b316 53bd c1df 523d 2576 f93d 2034 33bd
000002a0: e02d adbd a10d cc3d ac00 1ebd 79af 763d
000002b0: d070 483c 5215 70bd b870 b1bd 9880 9c3c
000002c0: afdf 6a3d c54f 913d 920b e83c f331 ce3d
000002d0: 5208 6ebd 80ac c33d 50b5 103d b0a5 a1bd
000002e0: 16b8 5ebd c655 cbbd 747b 9ebc da29 913d
000002f0: a95a 403d bdd4 613d 296a 1c3d e186 fd3d
00000300: 3821 bf3d dd28 983d 879a 0fbd 5221 eb3d
00000310: 7f00 22bc 76f3 67bd 20a1 3bbd 7305 453c
00000320: 170d b73d 2d45 a3bd 5a1c 163e 1ee3 9cbd
00000330: 08d6 e73d 7c83 babb 956c f5bc f4b8 0b3e
00000340: 226b 6cbd a5a0 b5bd 80fb 023d ab30 f4bd
00000350: ca94 ffbc 977b 3dbc 62d8 8b3c 530c e8bc
00000360: 028f e03d 495e d03c abd5 fa3d 6896 3bbd
00000370: 9ff6 cfbd a9cb 6a3c 602c 68bc a587 e2bd
00000380: 7068 3abd ec59 613d da18 473d 1e7f b0bc
00000390: e09d fb3c e4bf a23d 9739 10bd 8907 a5bd
000003a0: 2d8c 87bd cb26 8d3c 6fda 35bd 5541 c83a
000003b0: 53a0 0c3e 7c20 9dba bab9 ad3c 0913 033d
000003c0: ee21 1f3c 4709 2cbd 5e8a 0bbc b952 913d
000003d0: d872 ec3d 6ad8 cd3d 8fa0 063e 8a35 98bd
000003e0: f862 d33d f12b 0a3e 09cc fe3c 32cd 093d
000003f0: dd08 80bd 18ef 42bd 88ce fc3d c5c5 683d
-0.062558606 0.06570004 0.019082794 -0.0044936277 -0.07054662 0.14069194 -0.021055326 0.060903087
-0.019513436 -0.035540737 -0.11933561 -0.008079112 -0.059702773 0.042482134 -0.023503384 0.084141985
0.08840766 -0.00034124637 0.12133737 0.030074775 -0.021097716 -0.056343786 0.051555946 -0.08972115
-0.014469532 -0.048325695 -0.019080479 -0.006780373 0.11591427 0.039492924 0.011933172 0.06279086
-0.018272698 0.14197871 -0.06450196 0.089421034 0.014467932 0.07301493 0.01801934 -0.010493838
0.0074785054 -0.109090455 -0.03987375 0.09339242 0.049729753 0.10844446 0.08635973 0.026610872
0.05233863 -0.06697261 0.022349237 -0.05215875 0.10223675 0.04513494 0.057924576 0.038019236
0.10545348 0.00073898316 0.10718419 0.0807164 -0.0577257 0.031090533 0.030629342 0.028422931
0.055451415 0.056874067 0.07836539 0.1091846 -0.108789615 -0.038429588 -0.09376978 -0.09294438
0.049257714 0.037809175 0.03176738 -0.06325075 -0.03323013 -0.10961814 0.07838634 -0.123065904
0.020895679 0.12115045 0.025956877 0.092859544 -0.059297312 0.003984171 0.11013892 0.0634749
-0.064494275 -0.057031624 0.09315286 -0.023015967 -0.09467045 -0.05863264 -0.008675303 -0.07005495
-0.027121203 0.07945907 0.0619762 -0.041646805 0.08887685 -0.03012223 -0.02635074 0.10558492
0.059204027 -0.01087451 0.10128982 -0.06703744 0.03380086 0.0735293 0.07223358 -0.06197122
0.084597886 -0.09530676 -0.065491565 -0.05156273 0.056790784 0.0714619 -0.069170505 0.100461766
0.07108998 0.04267752 0.028882086 -0.04409694 0.051962826 0.055286307 0.12260742 0.10455084
-0.08777395 0.14310095 0.005907409 0.13770497 0.07203405 -0.10978131 -0.036139734 -0.0684212
-0.08702204 0.10448762 0.042728875 0.024747932 -0.0068378695 0.038972236 -0.04664631 0.05779837
-0.078402594 -0.005320974 0.042682752 0.0040481137 -0.061067335 0.06928731 -0.08248978 0.14646237
-0.01454537 -0.0060901274 -0.08012591 -0.056923818 0.09400413 0.11290321 0.11806004 0.043601446
-0.0664604 -0.1060133 0.043522954 0.11978327 -0.05153532 0.05148292 0.121807374 -0.043750882
-0.084560156 0.09963537 -0.03857486 0.060225938 0.012233928 -0.058614083 -0.086640775 0.019104287
0.057342228 0.07095293 0.02832583 0.10068121 -0.058113404 0.09554386 0.035329163 -0.078929305
-0.054374777 -0.09928469 -0.019345976 0.07088061 0.04696146 0.055134524 0.03818718 0.12379242
0.09332508 0.07429669 -0.035059478 0.11480965 -0.009887814 -0.056628667 -0.045807958 0.012025225
0.089380436 -0.079721786 0.14659253 -0.07660507 0.1132012 -0.0056919437 -0.029959003 0.13644773
-0.057719357 -0.08868531 0.03197813 -0.11923345 -0.031198878 -0.011565111 0.017070953 -0.02832619
0.109647766 0.025435584 0.12247785 -0.045797735 -0.10154461 0.014330783 -0.014170736 -0.110610284
-0.045509756 0.055017397 0.048607685 -0.02154499 0.03071493 0.079467565 -0.035211172 -0.08058078
-0.06618533 0.017230412 -0.044397768 0.001527826 0.13733034 -0.001198783 0.021206725 0.032000575
0.009712679 -0.042001035 -0.008516876 0.07095856 0.11545342 0.10051043 0.13147186 -0.07432087
0.10321611 0.13493325 0.03110315 0.033642955 -0.062516905 -0.0475913 0.1234408 0.056829233

sequential/lstm_1/while/lstm_cell/BiasAdd/ReadVariableOp f4 [200]
00000000: 8807 8a3d 81dd 8a3d 66c4 65bc e072 913d
00000010: f292 4abc b2b9 8e3d fea5 b5bc eb7f 933d
00000020: 3ab8 1a3c ac88 913d 658e 893d 9c91 1fbc
00000030: e2a1 903d 418c 4fbc d14d 92bc dc12 9cbc
00000040: 0de4 8e3d 0876 8c3d 021d 8b3d 353c 7c3d
00000050: c27e 5bbc b9ce 4ebc 987d 65bc ce19 9abc
00000060: 208a 4cbc 1d4f 86bc 0dc3 b8bc 089d a43d
00000070: b6df 79bb 6b86 6bbc cd55 8e3d 773c 47bc
00000080: e04e 25bc bb26 a2bc 5712 63bc dff3 8b3d
00000090: 39aa 873d df0b 74bc 224c 8c3d cb44 aabc
000000a0: 2ff5 2dbc 0e03 953d f253 99bc d566 883d
000000b0: 9c58 2ebc 55a5 81bc 6bbb 8e3d 7d5f 80bc
000000c0: ac33 69bc dafd 8c3d c436 893f c41d 893f
000000d0: a5c7 7c3f db07 893f 43e4 7c3f 758a 893f
000000e0: d4de 7a3f 9a23 893f 499a 803f e7e2 893f
000000f0: 4a4e 893f 805f 7d3f ca46 893f 89bc 7c3f
00000100: b6f9 7b3f fdd4 7a3f 1172 893f db28 893f
00000110: 98a5 893f 5d67 893f 49e0 7c3f 068e 7c3f
00000120: 2eae 7c3f befa 7a3f 2a2a 7e3f fd82 7b3f
00000130: 7879 7c3f d1e7 8d3f 8023 7d3f 642a 7c3f
00000140: ea0f 893f 91b2 7c3f 3009 7d3f d53a 7b3f
00000150: 6a8e 7c3f 8704 893f fb3b 893f d429 7c3f
00000160: 3689 893f 7b22 7b3f 09ea 7c3f 6829 893f
00000170: fe59 7b3f ea48 893f d1c5 7d3f 1ae2 7b3f
00000180: a516 893f 33f2 7d3f c665 7c3f f10f 893f
00000190: fa79 943d efb1 923d 4dde 70bc 750e 993d
000001a0: 7dae 6dbc 54bb 963d 0014 b2bc ccde 933d
000001b0: 8ac7 bc3c f167 9b3d e3d0 943d af06 49bc
000001c0: ddb9 963d bb6c 71bc 016e 22bc 2674 a4bc
000001d0: 53c6 993d dfd2 963d f886 953d 331d 923d
000001e0: 5464 5fbc 0828 7cbc dd99 7ebc 89a1 b5bc
000001f0: 75cd b73c 64b6 abbc 1d60 7fbc 3553 c73d
00000200: 6aa3 153b a9cc 84bc 9748 933d c812 61bc
00000210: 5aa0 1bbc cd6a 9cbc cd70 6abc 9537 953d
00000220: 3d8d 913d 9178 86bc 8c70 953d a825 b4bc
00000230: 99a0 58bc 7123 973d bfe9 a9bc 7b6b 953d
00000240: abfe 79bc 1a66 8abc 1988 943d 19c8 52bc
00000250: d510 7dbc 26e7 923d ad20 903d 97aa 8c3d
00000260: 3a6b 66bc c87f 923d b24b 4bbc 0715 923d
00000270: 7fe2 b3bc a7e9 8f3d deff 653b 2b84 903d
00000280: 0868 8e3d 4fb4 20bc 1b03 923d 72b8 4fbc
00000290: 096b 96bc 7f39 9cbc ca04 923d 2ec4 8d3d
000002a0: 9bde 903d aded 883d a33e 5cbc 78cb 4ebc
000002b0: 9f0a 66bc 159c 99bc 9806 4bbc 977f 86bc
000002c0: adbb aabc b182 a93d a4cd 51bb 401d 6abc
000002d0: a812 8d3d 6785 47bc f10e 27bc 5244 a3bc
000002e0: 2fa7 63bc 7c3e 8e3d 9037 873d 92d0 73bc
000002f0: 6086 8f3d 5c62 abbc d7dd 2dbc 9b66 8e3d
00000300: 1018 9abc b137 903d 68b3 2cbc 6690 81bc
00000310: caba 913d 9431 81bc 3add 67bc a109 8f3d
0.06739718 0.0678053 -0.014023876 0.07101989 -0.012364136 0.06969012 -0.022173878 0.07202133
0.009443337 0.07106146 0.06716613 -0.009739306 0.07062127 -0.0126677165 -0.017859371 -0.019051962
0.06977091 0.0685845 0.06792642 0.061580855 -0.013396921 -0.012622529 -0.014006995 -0.018811133
-0.012484103 -0.016395146 -0.022553945 0.08037764 -0.0038127727 -0.014375309 0.06949959 -0.012160412
-0.010089606 -0.019793859 -0.013859353 0.06833624 0.06624264 -0.014895408 0.06850459 -0.020784756
-0.010617538 0.07275973 -0.018716786 0.06660239 -0.010641243 -0.015825907 0.06969341 -0.015670532
-0.014233511 0.06884356 1.0719838 1.0712209 0.98742133 1.0705522 0.987858 1.0745379
0.9799626 1.071399 1.0047084 1.077237 1.0727017 0.98973846 1.0724728 0.9872518
0.98427904 0.97981244 1.0737935 1.0715593 1.075366 1.0734669 0.9877973 0.9865421
0.9870328 0.9803885 0.9928309 0.9824675 0.98622847 1.108637 0.98882294 0.9850218
1.0707982 0.9870997 0.98842144 0.98136646 0.98654807 1.0704507 1.072143 0.98501325
1.0744998 0.9809949 0.9879461 1.0715761 0.9818419 1.0725377 0.9912997 0.9839188
1.0710036 0.9919769 0.98592794 1.070799 0.07249828 0.071628444 -0.014701438 0.074734606
-0.014506933 0.07359949 -0.021738052 0.072202295 0.023044366 0.075881846 0.072664045 -0.01226966
0.07359669 -0.014735396 -0.009913922 -0.020074915 0.075085305 0.07364439 0.07301134 0.071344756
-0.01363476 -0.015390404 -0.015539614 -0.022171753 0.022436837 -0.020960994 -0.01558688 0.09732667
0.0022832998 -0.01621087 0.0719158 -0.013737388 -0.00949868 -0.019093895 -0.01430912 0.07285992
0.07107017 -0.016414912 0.07296857 -0.021990612 -0.013221883 0.07379807 -0.020741342 0.07295891
-0.0152584715 -0.016894389 0.07252521 -0.01286509 -0.015445908 0.07172994 0.070374824 0.06868475
-0.014063651 0.071532786 -0.012408184 0.07132917 -0.021958588 0.070269875 0.0035095136 0.07056459
0.06953436 -0.009808614 0.071294986 -0.0126782525 -0.018361585 -0.019070385 0.0712982 0.06922184
0.070737086 0.06685958 -0.013442668 -0.012621753 -0.014040618 -0.018751184 -0.012391709 -0.016418261
-0.020841444 0.082768805 -0.003201344 -0.0142892 0.06888324 -0.012177802 -0.010196433 -0.019930039
-0.01389484 0.06945512 0.066023946 -0.01488127 0.07008052 -0.020920925 -0.010611973 0.06953164
-0.018810302 0.07041872 -0.010540821 -0.015815925 0.07115705 -0.015770711 -0.014151866 0.069842584

sequential/lstm_1/while/lstm_cell/MatMul_11 f4 [200, 50]
00000000: a6f7 803c 1e5a 193e d47e 32bd e459 183e
00000010: 3a06 a4bd 472d f73d 91e6 913a 2b60 853d
00000020: 2b2d 103e 0d8e 093d 2a3a 323e 99d8 5abd
00000030: c432 a13d e180 98bc e368 ac3d 1b7a 7f3d
00000040: 207b 0e3e 7bba 223e 702e 543e 06c6 b33d
00000050: 5b47 c7bd 1b87 11bd 4cda dc3d 86dd 0bbd
00000060: 9b93 7cbc 3360 843d 9827 d73d 9495 1d3e
00000070: ce8d a13d 7670 e93c 44fc aabb 5611 883d
00000080: 1aed e8bc 91e1 e23d f461 9cbc 3c22 0cba
00000090: 7597 123e 7cf8 d03d 1d13 2d3c bd82 41bc
000000a0: 3207 a9bd d6c0 6f3c 56da b03b c202 aa3d
000000b0: 6db1 dd3c 01fc 8d3c fc78 cf3d 526d 9c3d
000000c0: 32ea 873d cce4 163d df42 ab3d eddb f9bd
000000d0: 6a6c 863d 7285 8e3d 0b54 1fbe 27bf 893d
000000e0: cdc7 aabd dc21 413e 94ee 0bbc 9c75 eb3d
000000f0: 2341 e73d 5900 633d e074 d63d c623 45bd
00000100: e2ba b93c 9ddb 2f3e 6a6d 173e 441c a63d
00000110: 4d5c 5c3d 3dd8 ce3d 43fd 13bd a701 aa3d
00000120: 8571 60bd 7c52 1bbb e7e2 adbc 41b1 fc3c
00000130: 708a 8fbd de22 6f3c b11c 983d d37a 653d
00000140: afbb 283d d700 053e 4372 bd3c 7839 913c
00000150: f917 853a 0fa6 91bb 8917 6f3d 511f 053d
00000160: 32a6 40bc ab11 e73c f02b a33d b273 283d
00000170: fd09 2a3d d437 d03c 0123 7b3d 84be 1f3d
00000180: e823 dd3d af3a a7bc 0024 0c3d bc8e 8c3d
00000190: c537 9abd 8403 753c 06f2 0e3d 2980 863d
000001a0: 513b d9bc 01f4 053d 157f ce3d effe c9bd
000001b0: 8af2 01bd ae22 033e d952 70bd d0e6 8e3d
000001c0: 57a5 c5bb cd5c d8bd cf15 83bd 79cf 053d
000001d0: fd53 a53c 2f62 8a3d 4445 d4bc a21b b63d
000001e0: 3996 ebbb 1f96 183e 953f 393d 596c a0bd
000001f0: 5d77 313d bd81 81bd fa41 7e3c b0ab e1bd
00000200: cfe1 c5bc c053 ad3d f051 ddbc a9e4 04bd
00000210: 0b4b c53d 76f6 9abd c1a6 2ebd 7a69 173d
00000220: 4187 823d b1cc 15bc 28af 903c 01e0 e8bc
00000230: 9043 483d 70cb 423c e13f 3f3d b2e2 9fbd
00000240: 92e3 4abc a561 003b a0d8 9e3d 793f 113e
00000250: 0c1a e83c ce15 57be 5d2e 6e3d 4673 673d
00000260: a3d5 c4bd b7fe d83d e570 2f3e 986f 033d
00000270: 1ee8 013e 6928 84bd 4a8c 1b3e 9c49 883d
00000280: 9d98 143e 7d8c 593c 9459 2a3e 98b1 243d
00000290: e07a 803d 9e2e ec3c 223f b33d 5310 fa3c
000002a0: 7b99 4b3c 909c 1ebd d7ce 413d b277 1c39
000002b0: c401 b2bd 18ad d13c 0ae5 983d d279 413d
000002c0: ac7a c33d ed07 0d3e f08b 44bc 8513 5f3d
000002d0: 9b8b e23d fecc 893d 1a06 cebd b60a 5dbd
000002e0: a529 2abc 3a6f e23d fada 933c b49b d6bd
000002f0: b58d fa3d a22e 823d fa2e ca3c bbce 6a3c
00000300: 8c93 ec3d 055b 69bb 41ff 52bc 0214 a13a
00000310: 0071 033e 9a96 8ebc c530 0e3e 675b 1a3d
00000320: 9769 813d ca84 c6bd 3c5b 2abd 1b7c 83bc
00000330: bbce 633c ee18 1e3d 976e a8bd ee9a 4d3d
00000340: 8042 27be d4c2 903c db4c 0ebe e3d0 853d
00000350: c0b5 543d d9b9 aabd 3546 22bd 0f90 a43d
00000360: 59e1 4dbd e320 8fbd 7c15 2e3d 3323 a33c
00000370: f20e 503e 5fe8 dcbc 94ec 32bc 9548 a13d
00000380: d040 613d 8251 9bbd 6ca2 503d 3559 a83d
00000390: bef4 9abd faec d33c 94fd 6abc 9316 acbc
000003a0: 5a75 0bbe 2f36 863d eaf9 0bbd d665 3bbe
000003b0: f31d 013d 203d 56bb a173 7abb 2d30 bfbd
000003c0: 875a 8cbd 4240 5ebd 761f 963a 67fc 5fbc
000003d0: ac13 c7bd 0623 8dbd 006f 88bd ebfb d9bb
000003e0: 9367 d0bd f2ad f33b dbc0 aabd be51 653d
000003f0: 6845 57bc 8684 c1bc 4f6d b5bc b2dc 533d
0.015743088 0.14975783 -0.043577984 0.1487804 -0.08009 0.12069183 0.0011131336 0.06512483
0.1407973 0.033582736 0.17405 -0.05342922 0.07871011 -0.018616142 0.08418443 0.06237231
0.13914156 0.15891449 0.2072084 0.08778004 -0.09730407 -0.035529237 0.10783824 -0.034146808
-0.015416051 0.06463661 0.10505599 0.15389091 0.07888375 0.028496008 -0.0052180607 0.066439316
-0.028433371 0.1107818 -0.019089676 -0.00053456775 0.14315589 0.10203645 0.010563639 -0.011810956
-0.082533255 0.014633378 0.0053971214 0.08301307 0.027062142 0.017332079 0.10130498 0.07638039
0.06636466 0.03683929 0.08362364 -0.12200151 0.06563647 0.069590464 -0.15559404 0.067259125
-0.0833889 0.18860573 -0.008540768 0.114970416 0.11291721 0.055420253 0.10471511 -0.04812982
0.02267212 0.1717362 0.14787832 0.0811086 0.053798962 0.10099838 -0.0361302 0.083010964
-0.05479576 -0.0023700288 -0.02122636 0.03084624 -0.07008827 0.014595715 0.074273475 0.056025337
0.041194614 0.12988602 0.023125773 0.017727599 0.0010154239 -0.0044448446 0.058372054 0.03250057
-0.011758374 0.028206667 0.07967365 0.04112596 0.04151343 0.025417246 0.06131268 0.03900005
0.10797864 -0.020413725 0.03421402 0.06863162 -0.075301684 0.0149544515 0.03489878 0.06567413
-0.026517542 0.032703403 0.10082833 -0.09863078 -0.031725444 0.12806198 -0.05867276 0.06977618
-0.006031673 -0.10564575 -0.06400644 0.032668564 0.02018165 0.06757008 -0.025911935 0.08891989
-0.007189539 0.14901017 0.045226652 -0.07833166 0.043326724 -0.06323574 0.01551866 -0.11019075
-0.024155525 0.0846324 -0.02701661 -0.03244463 0.09633454 -0.0756654 -0.042639498 0.036965825
0.06373454 -0.0091430405 0.017661646 -0.028427126 0.048892558 0.011889324 0.04669178 -0.078069106
-0.012383359 0.001958945 0.07756162 0.14184369 0.028332733 -0.21004412 0.058149684 0.056506418
-0.096110605 0.10595458 0.1713291 0.032088846 0.12686202 -0.0645302 0.15190235 0.06654665
0.14511342 0.013278124 0.16635734 0.04020843 0.062734365 0.028830823 0.08752276 0.030525362
0.012426729 -0.03872353 0.0473164 0.0001492191 -0.08691743 0.025595233 0.07465561 0.047235318
0.09544882 0.13772555 -0.011996254 0.054461975 0.11061784 0.06728552 -0.100597575 -0.053965293
-0.010385905 0.11056371 0.018048752 -0.10478917 0.1223406 0.06356551 0.024680603 0.014331515
0.1155158 -0.003560723 -0.01287824 0.0012289288 0.12836075 -0.017405797 0.13885792 0.037684824
0.06318968 -0.09693296 -0.041590914 -0.016050389 0.013904269 0.038597994 -0.08224218 0.05019658
-0.16333961 0.017671026 -0.13896506 0.065339826 0.051931143 -0.08336229 -0.039617736 0.080352895
-0.050263736 -0.069886945 0.042500958 0.019914245 0.20318201 -0.026966272 -0.010920662 0.07875172
0.05499345 -0.07583906 0.050936148 0.0822014 -0.07566212 0.025869835 -0.014342684 -0.021006858
-0.13618985 0.065533035 -0.034173883 -0.18300566 0.031522702 -0.0032690242 -0.0038215893 -0.09335361
-0.06853204 -0.0542605 0.0011453468 -0.013671017 -0.09720549 -0.06891446 -0.066617966 -0.0066523454
-0.10176005 0.0074365074 -0.083375655 0.05598616 -0.013139106 -0.023622762 -0.022146849 0.051724143

sequential/lstm_1/while/lstm_cell/MatMul f4 [200, 100]
00000000: 6ae8 623d 482d 383e 51af 0bbd 29a7 463c
00000010: c6ed a93d 3988 6d3d 640d dd3d a450 0b3e
00000020: ad33 81bd e7e8 2d3d 34e0 333d cbb9 9ebd
00000030: c433 173d 56a9 9abc 4fd5 e43d 2f2e be3d
00000040: 861e 133d 2c94 9abc edd1 1ebd f2ad 2c3e
00000050: b420 8b3d f7be 2ebd 1bb6 2e3e bd6e 023e
00000060: 7d78 d23c a50b 20bc 6026 82bd 50e4 b7bc
00000070: c35f 44bd 6dab e8bd 73ec d9bd 11ec 0a3e
00000080: 9b18 b5ba cc14 173d dead ce3d f1a8 c9ba
00000090: 8a2b ff3c b3ca 0c3e 20ac 0e3e c40f 483e
000000a0: 0855 cb3d 9ccb 2d3e 3487 eebd a884 b73c
000000b0: 228d f13c 9ee4 febd a3fc 8e3d be98 a2bc
000000c0: ac5a bdbd 4280 243e 12ef c43c 9151 173e
000000d0: c0f1 13bc d4cb 3a3d 1133 1bbc 4c81 bebd
000000e0: 6811 a43d 5284 7f3c bdce aebd afd1 273e
000000f0: 85b0 133e a706 acbd 50cc 54bd 30ed d03d
00000100: 6c70 243e 5c2a 943d 12be 243e a76a 3a3e
00000110: b0c9 90bc 9664 283e acf3 cabc f666 0a3e
00000120: 3d88 0b3d 9d9b a03d 72f9 1b3d af12 c33d
00000130: 7fa6 8abd 3078 d8bc 90e8 cf3c 0867 fe3d
00000140: 87b3 133e a8b8 023e 235e 2c3d 6e46 093d
00000150: 7934 863d 05f0 a8bb b95b c7bc 844a 1c3e
00000160: d1a3 73bd 99a6 1fbc db0d 823c 48af 90bd
00000170: 146e 8a3d 8992 123e 8d4c c43d 956e f53d
00000180: 7dc2 2e3e f632 de3d b663 bebd 5490 05be
00000190: 2160 9fbd bb1d 173e 92eb af3d 7404 203e
000001a0: 943c f63d 8602 0dbd bc53 8e3d d937 30bd
000001b0: 091b 0e3c fb8d b93d 6075 4fbc ccf5 2ebb
000001c0: b901 1b3e 5017 fb3a 8fc0 28bd e67a c53c
000001d0: f6ff f9bd c015 723b 1e2a dcba df2b a93c
000001e0: c968 fa3d 6252 2c3e 2afb 3e3d ec58 b93d
000001f0: 67bb aebc ea0e ddbc 33db 1d3e 600d 5bbc
00000200: cb83 2d3d 00e2 353d d152 2c3d dc56 02bd
00000210: 3bca e73c fad6 913d 7f50 563d 26c7 d9bd
00000220: d7a6 443e 1c1b 2dbd 142a 233e 0f03 253e
00000230: a52f 013e 39d3 f43d 7b10 823c 45f7 013e
00000240: 8f91 ddbc 0388 c13d 4a25 92bd ad06 333e
00000250: 0046 e23d 0243 e23d f398 09bd 2f99 1d3d
00000260: b8f7 f5bc 724e 1e3e dc98 8f3d c550 2c3e
00000270: 5c4c a63d 232e 823d 1b75 84bd e903 003e
00000280: d73b 533b b385 0f3e 93ed 273e be9d 943d
00000290: 43ae 8dbc 375f c63d 26a1 453e 4759 263d
000002a0: bed5 e83d f18f 3d3e 025f fe3c c050 0bbd
000002b0: 7f39 cf3d 0b06 c3bb 6474 393e 3f30 9cbd
000002c0: 5870 b53d ddf9 95bd 50a9 9abc 53c0 d23b
000002d0: e138 5a3b 6d2e 913b ceb0 023e 951e a7bd
000002e0: 0328 3b3e 48e2 4b3d 3cb9 543c 235b f03d
000002f0: 8c94 273e 084a fdbd 9650 1fbd 4f97 a4bd
00000300: bef7 283e 3222 433c 884d 2a3e bf44 d43b
00000310: 067c 0a3e d6ca 213e f685 84bd f0f2 4bbc
00000320: 0cc4 19be e7fc 5abd a975 bf3d aaa1 0fbe
00000330: add6 04be 3f08 83bc 5d54 11be e314 863d
00000340: c347 55bd d5fa febc 982f 9f3d 98d7 ec3c
00000350: 2598 71bc fa63 973d 9558 203c ec68 65bd
00000360: 682e ec3b 6001 d1bd 95b1 c43c 10e2 a73d
00000370: 4012 2e3d 6091 06be 0305 82bd 592b f13d
00000380: 0403 0c3a 785c f5bd a0af 59bd 4481 3abd
00000390: 614e 793c 6014 bc3c e20d 013e fad8 8bbd
000003a0: c97d 133d ab9d 573d 9964 a7bd 28f4 9abd
000003b0: 1e66 d1bc 1dd1 17bd 5933 e03d 59d8 423d
000003c0: b0c2 553c bc8b c33b a1a4 26bd a75f 003e
000003d0: 666c 72bd 50dc e3bd 470c ddbd d22f 31bc
000003e0: 8683 0a3e 8d15 f93d e2ae 13be 027a 9c3d
000003f0: e878 683d 3cc7 763d 5c04 39bd 0677 0ebe
0.05539743 0.17986023 -0.03410274 0.012124815 0.08297305 0.05799124 0.1079357 0.1360498
-0.063086845 0.04245844 0.04391499 -0.07750281 0.036914602 -0.018879574 0.11173498 0.092861526
0.03591778 -0.018869482 -0.03877442 0.1686323 0.06793347 -0.042662587 0.17061655 0.12737556
0.025692219 -0.009768401 -0.06354976 -0.022447735 -0.047942888 -0.11360822 -0.10640802 0.13566615
-0.0013816537 0.036885068 0.10091756 -0.0015385431 0.03114869 0.13749199 0.13932848 0.19537264
0.09928328 0.16972202 -0.11646882 0.022402123 0.029486243 -0.12445949 0.069817804 -0.019848224
-0.0924581 0.16064551 0.024039779 0.14777209 -0.009029806 0.045604542 -0.009472624 -0.09302005
0.080111325 0.015595512 -0.08535526 0.16388582 0.14422806 -0.08399706 -0.05195266 0.1020149
0.1605851 0.07234642 0.16088131 0.18204747 -0.017674297 0.1644462 -0.024774395 0.13515839
0.034065474 0.07842181 0.038079686 0.09525048 -0.06770038 -0.026424497 0.02537945 0.124219954
0.14423953 0.12765753 0.042081963 0.033514433 0.06552977 -0.0051555657 -0.024335729 0.152628
-0.0594824 -0.00974431 0.015875747 -0.07064682 0.06759277 0.14313711 0.095849134 0.119839825
0.17066379 0.10849564 -0.09296362 -0.13043338 -0.07782007 0.14757435 0.08589853 0.15626699
0.12023273 -0.034426235 0.06949565 -0.04302201 0.008673438 0.09060284 -0.012662262 -0.00266968
0.15137376 0.0019156728 -0.041199263 0.024106454 -0.12207024 0.0036939234 -0.001679722 0.020650802
0.122270174 0.16828302 0.046626247 0.090501636 -0.021329595 -0.02698465 0.15415649 -0.013369888
0.042362016 0.044404984 0.042071167 -0.031821117 0.028294673 0.07121082 0.05232286 -0.10633688
0.1920427 -0.04226218 0.1593402 0.16114448 0.12615831 0.1195435 0.015877 0.12691982
-0.027046947 0.0944977 -0.071360186 0.17483015 0.11048508 0.11047937 -0.03359313 0.038476165
-0.030025348 0.15459612 0.070115775 0.16827686 0.08120033 0.06356456 -0.064676486 0.12501492
0.0032231712 0.14015846 0.16399221 0.072566494 -0.017295009 0.096861295 0.19299755 0.040612485
0.11368893 0.1851194 0.031051163 -0.034012556 0.101183884 -0.005951648 0.18110806 -0.0762639
0.088593185 -0.07323048 -0.018879563 0.0064316182 0.0033298063 0.004430583 0.12762758 -0.0816013
0.18276982 0.049776345 0.012983616 0.11736133 0.1636526 -0.12367636 -0.038895212 -0.08036672
0.16500756 0.011910008 0.16631138 0.0064779217 0.13523874 0.15800032 -0.064708635 -0.0124480575
-0.15016192 -0.053463843 0.09348614 -0.14026514 -0.12972517 -0.015995143 -0.14192338 0.065469526
-0.05207039 -0.031125465 0.0777275 0.028911397 -0.014745747 0.07392116 0.009786745 -0.056008264
0.0072076805 -0.102053404 0.024010459 0.08197415 0.042497873 -0.13141394 -0.06348612 0.11775846
0.00053410255 -0.11980528 -0.053146005 -0.045533434 0.015216441 0.022958934 0.12602952 -0.06828494
0.03600863 0.0526406 -0.08173484 -0.075661 -0.025561389 -0.03706466 0.10947294 0.047569606
0.013046905 0.0059675854 -0.040684346 0.12536488 -0.059185408 -0.11126006 -0.10793357 -0.010814624
0.13526735 0.121623136 -0.14422181 0.07640459 0.05675593 0.0602486 -0.045170173 -0.13912591
